model copy 2.pth (torch, 32423 bytes, 2 tensors)

linear.weight f4 [10, 784]
0	0xbc9da160	-0.019241989
1	0xbb7b35d0	-0.0038331635
2	0xbcd82943	-0.026386863
3	0xbc81bb7c	-0.01583647
4	0xbc8e798a	-0.017391939
5	0xbca3ce85	-0.019995937
6	0x3cf2c70e	0.029635932
7	0xbd09feee	-0.033690386
8	0x3cfc58e2	0.030804101
9	0x3cd8fdde	0.02648824
10	0xbc876b35	-0.016530612
11	0x3c7b85b8	0.015351705
12	0xbb8d53d4	-0.0043129716
13	0xbcc81522	-0.02442414
14	0x3c1efc5a	0.00970372
15	0xbca2e45c	-0.01988428
16	0xbcc5dd9c	-0.024153523
17	0xbcd79508	-0.02631618
18	0xbc1f6520	-0.0097287
19	0x3cd6a650	0.02620235
20	0x3c6d05e8	0.01446674
21	0x3cf149e6	0.029454183
22	0xbca57d6a	-0.020201404
23	0xbcd5ec5e	-0.026113685
24	0x3cba1d5c	0.022719078
25	0xbca5539e	-0.020181473
26	0x3bed9928	0.0072509237
27	0xb9f07680	-0.00045864657
28	0xbb8ba8c0	-0.00426206
29	0x3cd851c8	0.026406184
30	0x3ce29082	0.027656797
31	0x3d0857bf	0.033286806
32	0x3d066961	0.03281534
33	0x3c79b000	0.015239716
34	0x3cfbacb7	0.030722005
35	0xbc74f6d6	-0.014951428
36	0xbb0228a3	-0.0019860647
37	0xbc93b54a	-0.018030781
38	0xbd5b3547	-0.053517606
39	0x3cfa94e3	0.030588573
40	0x3c6d74c8	0.014493175
41	0xbcc690ec	-0.024239026
42	0xbd840e84	-0.06448081
43	0xbcfc0d3c	-0.03076803
44	0xbdb2ec1c	-0.087364405
45	0xbc3f314a	-0.011669466
46	0x3c9c6343	0.0190903
47	0xbcd3c070	-0.025848597
48	0xbbb3606a	-0.00547414
49	0xbc2184f9	-0.009858363
50	0xbc92b8be	-0.017910358
51	0x3cd39af3	0.025830721
52	0xbca37605	-0.019953737
53	0x3cf1cd06	0.029516708
54	0xbcb1c3ec	-0.021699868
55	0xbc66ecae	-0.014094515
56	0x3cf86e72	0.030326102
57	0xbcf26a8c	-0.029591821
58	0xbd07bf4c	-0.03314142
59	0xbbf7ef15	-0.0075663426
60	0x3cc73762	0.0243184
61	0x3caf1135	0.02137051
62	0xbde1fb2d	-0.11034236
63	0xbe36aaaa	-0.1783854
64	0xbe39a64b	-0.18129842
65	0xbebafc97	-0.36520836
66	0xbed8e044	-0.423586
67	0xbefc179c	-0.49236763
68	0xbf33c55f	-0.7022304
69	0xbf3bdcd8	-0.73383856
70	0xbf5fd6a4	-0.8743689
71	0xbf8632c5	-1.0484244
72	0xbf609f29	-0.8774286
73	0xbf549cec	-0.83051944
74	0xbf5638c0	-0.83680344
75	0xbf323219	-0.6960769
76	0xbf11642f	-0.56793493
77	0xbe73bd80	-0.23802757
78	0xbde54f12	-0.11196722
79	0xbd6a9bb5	-0.0572774
80	0xbc9a29f7	-0.018818839
81	0x3ccc677b	0.024951687
82	0xbc193da6	-0.009353077
83	0xbcaa25f5	-0.020770052
84	0xbc86b37c	-0.016443007
85	0x3ceaf7be	0.028682586
86	0xbd049b14	-0.032374457
87	0xbd09746d	-0.033558298
88	0xbc70915d	-0.014683095
89	0xbccdcfef	-0.025123565
90	0xbe38b803	-0.18038945
91	0xbe93f5b6	-0.288984
92	0xbe50397f	-0.20334433
93	0xbf59d039	-0.8508335
94	0xbfa03bd5	-1.2518259
95	0xbf701ace	-0.937909
96	0xbed1d408	-0.4098208
97	0xbcf35359	-0.02970283
98	0xbf1e1c42	-0.6176187
99	0xbfcdea13	-1.6087059
100	0xbeacf0e6	-0.3377754
101	0xbd60673d	-0.054785956
102	0xbfa1b4ce	-1.2633302
103	0xbf7d5d1a	-0.98970187
104	0xbfd1ab2b	-1.6380361
105	0xbfb3153c	-1.3990855
106	0xbf6dd3a6	-0.92901075
107	0xbef37368	-0.47548985
108	0xbe1b0b45	-0.15141018
109	0xbb4b899f	-0.003105737
110	0xbc119641	-0.008885921
111	0xbc0522fc	-0.008126017
112	0xbcacf5d0	-0.021113306
113	0xbb30d49a	-0.002698219
114	0x3cce925b	0.025216272
115	0xbc9b9ebd	-0.01899659
116	0xbcb56024	-0.02214057
117	0xbe7f0425	-0.24903925
118	0xbeea0303	-0.45705423
119	0xbf2808cf	-0.6563844
120	0xbe0ea292	-0.13929203
121	0xbed6e020	-0.4196787
122	0xbf7a5e03	-0.977997
123	0xbf86af52	-1.0522254
124	0xbea19388	-0.3155787
125	0xbe4dec9d	-0.20109792
126	0xbe2bb6b1	-0.1676891
127	0xbe2152cb	-0.1575424
128	0xbf1306b3	-0.574321
129	0xbe466879	-0.1937579
130	0xbf022b0b	-0.5084693
131	0xbe9bf3d4	-0.30459464
132	0xbe3196f9	-0.17342748
133	0xbf72eb1a	-0.94889987
134	0xbeca4f4d	-0.39513627
135	0xbe5e991b	-0.21738093
136	0xbf22ba32	-0.6356536
137	0xbea229ce	-0.3167252
138	0xbd957ee2	-0.072995916
139	0xbc385b62	-0.011252256
140	0xbcb27ada	-0.021787096
141	0x3b76e6b0	0.0037674122
142	0x3a97800b	0.0011558546
143	0xbc2febf3	-0.010737407
144	0xbe68e87b	-0.22744934
145	0xbf15ab41	-0.5846444
146	0xbf0fbbdb	-0.5614602
147	0xbe90d8fa	-0.2829054
148	0x3d8eda72	0.06975259
149	0xbeb30fb9	-0.34972933
150	0xbd97d926	-0.07414465
151	0x3f2795d8	0.6546302
152	0x3c72e669	0.014825442
153	0x3e0ca651	0.1373532
154	0x3f524d68	0.8214936
155	0x3ee6e701	0.45098117
156	0x3e8d9a2d	0.2765669
157	0x3e1028f8	0.14078128
158	0x3f65fd24	0.89839387
159	0xbec236fe	-0.3793258
160	0xbdeaa1ef	-0.11456668
161	0xbea1964e	-0.31559986
162	0xbca7eeaf	-0.020499555
163	0xbedfa01e	-0.43676847
164	0xbfb4e3cd	-1.4132019
165	0xbf32b204	-0.6980288
166	0xbddc4350	-0.10755026
167	0xbbb61ffb	-0.0055580116
168	0x39bb1b00	0.00035687536
169	0x3c41c1d2	0.0118259955
170	0x3bedc167	0.0072557214
171	0xbcaade27	-0.020857884
172	0xbeac6d40	-0.336771
173	0xbdc3cd75	-0.09560672
174	0xbe165a9b	-0.14683
175	0xbed1367c	-0.4086188
176	0xbee0f87a	-0.43939573
177	0xbfaf9b12	-1.3719199
178	0xbea18374	-0.31545603
179	0xbe2b08d8	-0.16702592
180	0xbf5a47e4	-0.85265946
181	0x3f09e651	0.5386706
182	0x3e545d18	0.20738637
183	0x3da1c56d	0.07898984
184	0x3e5fdc70	0.21861434
185	0x3ef0d45e	0.47037023
186	0x3e23ac8b	0.15983789
187	0x3c17b578	0.009259574
188	0xbe989cdc	-0.29807174
189	0x3f53ecff	0.827835
190	0x3f12956e	0.5725926
191	0xbf5c903f	-0.861576
192	0xbfe9104c	-1.8208098
193	0xbf815cfa	-1.0106499
194	0xbe8e23a8	-0.2776158
195	0xbcb7d82f	-0.022441952
196	0xbc8cc189	-0.017182129
197	0x3ceb01ce	0.028687384
198	0xbbfece2d	-0.007776043
199	0xbd207f45	-0.039183874
200	0xbeac1146	-0.3360693
201	0x3e616600	0.22011566
202	0xbe8b683a	-0.27227956
203	0xbe929a1f	-0.2863321
204	0xbf143fef	-0.57910055
205	0x3d3dbfec	0.04632561
206	0x3e9cb39b	0.30605778
207	0x3b237c59	0.0024945943
208	0xbed4a1d8	-0.41529727
209	0x3f8f76b3	1.1208099
210	0x3e9d74fd	0.30753317
211	0xbe2cad37	-0.16862951
212	0xbea43823	-0.3207408
213	0x3f964b35	1.1741701
214	0x3faa2ffa	1.3295891
215	0x3f62efb0	0.88646984
216	0x3e715c49	0.2357036
217	0x3ea3055d	0.3184003
218	0xbeef8701	-0.46782687
219	0xbf173364	-0.5906279
220	0xc00a9096	-2.1650748
221	0xbf9a0390	-1.2032337
222	0xbec03a58	-0.37544513
223	0xbda5740b	-0.08078774
224	0x3e246511	0.16054179
225	0xbc26f9ad	-0.010191363
226	0xbce5385e	-0.02798098
227	0xbda89f84	-0.0823355
228	0xbf1f55b3	-0.6224014
229	0xbed7da4c	-0.42158735
230	0xbeede7a4	-0.4646579
231	0xbe85f521	-0.2616358
232	0x3e70ab55	0.23502858
233	0xbd979f9a	-0.074034885
234	0x3edc741c	0.43057334
235	0xbeb16d7a	-0.34653836
236	0x3f2bec7d	0.6715773
237	0xbf53fe99	-0.8281036
238	0x3ebb78c9	0.3661559
239	0x3f46d5f2	0.77670205
240	0x3fa0d11c	1.2563815
241	0x3e806361	0.2507582
242	0x3e96b52d	0.294351
243	0x3d6c8d8f	0.05775219
244	0x3ecd9869	0.40155342
245	0x3e5e6644	0.21718699
246	0xbe001ed5	-0.12511761
247	0x3f1d3e37	0.6142306
248	0xc00c888c	-2.1958342
249	0xbfbed456	-1.490855
250	0xbef0c57a	-0.47025663
251	0xbcd89305	-0.026437292
252	0x3cc19f7b	0.023635617
253	0xbcadb8e3	-0.021206325
254	0xbd072702	-0.032996185
255	0xbd5cbc0e	-0.05389028

linear.bias f4 [10]
0	0xc0d08d13	-6.517221
1	0xbfe30f6b	-1.773908
2	0xc04432ab	-3.0655925
3	0xc0fdbe36	-7.929469
4	0xbfb48c62	-1.4105341
5	0x4038348e	2.8782077
6	0xc0b875de	-5.764388
7	0x3f951de5	1.1649748
8	0xc19737a0	-18.90216
9	0xc10a2922	-8.635042
