model.pth (torch, 32423 bytes, 2 tensors)

linear.weight f4 [10, 784]
0	0xbcdeec18	-0.027212188
1	0x3ac250c0	0.0014825091
2	0xbcf5677a	-0.029956568
3	0xbb8b38f0	-0.004248731
4	0x3cb1022a	0.021607477
5	0xbcc97a73	-0.024594521
6	0xbd050f5b	-0.032485347
7	0xba0fb7c0	-0.0005482398
8	0xbd1182d2	-0.03552515
9	0xbbfa3be4	-0.007636534
10	0x3c935e4e	0.017989304
11	0x3d0e441f	0.034732934
12	0x3d0aa606	0.03384974
13	0xbc110a9f	-0.00885263
14	0x3cffaf78	0.0312116
15	0xbb20fc7d	-0.0024564557
16	0x3cc587e6	0.024112653
17	0x3cc009ba	0.023442138
18	0xbb64e070	-0.0034923814
19	0x3cb597ea	0.022167165
20	0x3ccf233a	0.025285352
21	0xbc7a3a8a	-0.015272746
22	0xbca216fa	-0.019786347
23	0x3cd11b3c	0.025525682
24	0x3cd8a486	0.026445638
25	0xbb24c910	-0.0025144257
26	0xbafafbe0	-0.0019148551
27	0xb9ba0280	-0.00035478547
28	0xbba87288	-0.0051406063
29	0xbcd5c48e	-0.026094701
30	0x3be2daf8	0.0069230758
31	0xbcc1df7a	-0.023666132
32	0xbcdc0088	-0.026855722
33	0xbd009808	-0.03139499
34	0xbce52a33	-0.027974224
35	0x3cb8ace7	0.022543384
36	0x3ca2e9fb	0.019886961
37	0xbcb820ab	-0.022476515
38	0x3b3a9508	0.0028470177
39	0xbc16ee81	-0.009212137
40	0x3d03b55b	0.032155376
41	0xbc5b5862	-0.013387771
42	0xbcf079bd	-0.029354924
43	0x3c314e46	0.0108218845
44	0xbc552841	-0.013010086
45	0x3c44adf2	0.012004362
46	0x3caf2ef3	0.021384692
47	0xbcc8fbc7	-0.02453412
48	0xba1dadd5	-0.00060149777
49	0xbc7df33a	-0.015499884
50	0xbce12b49	-0.02748646
51	0x3bc90ddb	0.006135685
52	0x3c252914	0.010080595
53	0xbb63c130	-0.00347526
54	0xbb909808	-0.004412655
55	0x3c9ec8c8	0.01938285
56	0x3c7b03c8	0.015320726
57	0xbbef3470	-0.007299952
58	0xbc9deebd	-0.019278878
59	0xbc8598b9	-0.016308175
60	0xbb54a807	-0.0032448785
61	0xbc9393a4	-0.018014736
62	0xbcfa01e5	-0.030518482
63	0xbca17095	-0.019707004
64	0xbc1b284a	-0.009470055
65	0xbb65a583	-0.003504128
66	0xbd51de7b	-0.051237565
67	0xbcc44a95	-0.023961345
68	0xbd757e7e	-0.059935085
69	0xbdb31976	-0.08745091
70	0xbe01965f	-0.12655018
71	0xbdc0af1f	-0.09408402
72	0xbe100543	-0.14064507
73	0xbdfc70b7	-0.12326186
74	0xbde16a47	-0.11006599
75	0xbe0bbd03	-0.13646321
76	0xbd7a5ea3	-0.06112541
77	0xbd325cf1	-0.043545667
78	0xbd09735f	-0.033557292
79	0x3cb35bd2	0.02189437
80	0x3cb6d755	0.022319475
81	0x3c12715a	0.008938158
82	0xbbc87db8	-0.0061185025
83	0xbc95ca17	-0.01828484
84	0xbc05a4b2	-0.008156942
85	0xbba32614	-0.0049789045
86	0xbd05a1fe	-0.03262519
87	0xbc2d70d5	-0.010585983
88	0x3c431e4f	0.011909082
89	0x3c424334	0.011856843
90	0xbd3c4572	-0.045964666
91	0xbd85f307	-0.065404944
92	0xbd88fcb2	-0.06688823
93	0xbdd5def6	-0.10442917
94	0xbe22e8a4	-0.15909058
95	0xbe317890	-0.17331147
96	0xbe1a5204	-0.15070349
97	0xbe1f3502	-0.15547565
98	0xbe89649a	-0.26834565
99	0xbe93915f	-0.28821847
100	0xbea261b3	-0.31715164
101	0xbe9a1dd3	-0.3010088
102	0xbe9c5a14	-0.30537474
103	0xbe84eb23	-0.25960645
104	0xbe6dde2b	-0.23229282
105	0xbe1df164	-0.15424114
106	0xbdbe7ff3	-0.09301748
107	0xbc3add32	-0.011405276
108	0xbcc6b322	-0.024255339
109	0xbcbbdcdb	-0.02293246
110	0x3d076e0d	0.033063937
111	0x3ca9bff6	0.020721417
112	0xbccd796a	-0.025082309
113	0x3ce36566	0.027758311
114	0x3c380838	0.011232428
115	0x3cf3a70f	0.029742746
116	0x3c3b26c7	0.011422819
117	0xbd13e9f4	-0.036111787
118	0xbd1cf2c0	-0.038317442
119	0xbdebd330	-0.1151489
120	0xbdcf593b	-0.10124441
121	0xbe1ac622	-0.15114644
122	0xbe389da9	-0.18028893
123	0xbe69cd60	-0.2283225
124	0xbe54640a	-0.20741287
125	0xbe2c98d0	-0.16855168
126	0xbe3e39dc	-0.18576759
127	0xbdbd3758	-0.092390716
128	0xbe2c7691	-0.16842104
129	0xbe82aca4	-0.2552234
130	0xbe773108	-0.24139798
131	0xbe4d1d80	-0.20030785
132	0xbe4c4c95	-0.19951089
133	0xbe30f8c0	-0.1728239
134	0xbe11b937	-0.1423081
135	0xbd8286cd	-0.063733675
136	0xbda2ec46	-0.07955222
137	0xbc40932b	-0.011753838
138	0xbcc9f600	-0.024653435
139	0xbc27f6b1	-0.010251687
140	0xbcd61753	-0.026134169
141	0xbc9beee3	-0.019034809
142	0xbb8c3631	-0.004278921
143	0x3bc603a8	0.0060429163
144	0x3b179486	0.0023129298
145	0xbcf5bdaa	-0.029997665
146	0xbde47f65	-0.11157111
147	0xbe0635e6	-0.13106498
148	0xbe4a29a3	-0.19742446
149	0xbea24100	-0.31690216
150	0xbe926c06	-0.2859804
151	0xbe4ca9fd	-0.1998672
152	0xbd8b5f6a	-0.06805308
153	0x3da09a2a	0.078419045
154	0x3e28bc2d	0.16478033
155	0x3e3b93ba	0.18318072
156	0x3de6af5c	0.11263916
157	0x3e0df9ea	0.13864866
158	0x3dda253b	0.106516324
159	0xbb8d3a1c	-0.0043099057
160	0xbcf5dbdf	-0.03001207
161	0xbda29127	-0.07937842
162	0xbd8c7000	-0.068573
163	0xbdba2148	-0.09088379
164	0xbde6340c	-0.11240396
165	0xbdc9e15b	-0.09857436
166	0xbaa2b19e	-0.0012412553
167	0x3d0e4b91	0.034740034
168	0x3cb4001c	0.021972708
169	0xbc606da1	-0.013698013
170	0x3cad4464	0.021150775
171	0xbc7218bb	-0.014776404
172	0xbd1179f4	-0.035516694
173	0xbdbfafa5	-0.093596734
174	0xbdd11704	-0.10209468
175	0xbe6c6bdc	-0.2308802
176	0xbe94def2	-0.29076344
177	0xbea4dee0	-0.3220129
178	0xbe115aec	-0.1419484
179	0xbd5b169b	-0.053488355
180	0x3c9e97f1	0.01935956
181	0x3e1afd86	0.15135774
182	0x3e1c3705	0.15255363
183	0x3e236d60	0.15959692
184	0x3e3738a0	0.17892694
185	0x3e86a3c0	0.26296806
186	0x3e7a59a7	0.24448262
187	0x3e32966c	0.17440194
188	0x3dd912ca	0.10599287
189	0x3d9f3887	0.077744536
190	0xbd8d2a48	-0.0689283
191	0xbe3447cc	-0.17605513
192	0xbe8f7d94	-0.28025496
193	0xbdd97229	-0.106174774
194	0x3b4b5dd8	0.0031031277
195	0xbaaf6340	-0.0013381019
196	0x3d09997a	0.033593632
197	0x39956d47	0.00028500913
198	0x3c996e40	0.01872933
199	0xbc8934d0	-0.016748816
200	0xbd89519f	-0.06705021
201	0xbde7c56f	-0.11316954
202	0xbe02d1da	-0.12775365
203	0xbe7a453a	-0.2444047
204	0xbe743874	-0.2384966
205	0xbe3cf135	-0.18451388
206	0xbd681de7	-0.056669142
207	0x3d000bf3	0.031261396
208	0x3cdf9bf1	0.027296038
209	0x3dc78eba	0.0974402
210	0x3dade185	0.0849028
211	0x3ddc2b26	0.107504174
212	0x3e78dc76	0.24302849
213	0x3ea91bee	0.3302912
214	0x3e95c981	0.29255298
215	0x3e232979	0.1593379
216	0x3df43e7f	0.11925983
217	0x3d5962e8	0.05307284
218	0xbd9a036d	-0.07520185
219	0xbe129da9	-0.14317955
220	0xbeabcb89	-0.33553723
221	0xbe329c14	-0.17442352
222	0xbcfe2d4b	-0.031027457
223	0xbcc008b3	-0.023441648
224	0x3c6a8730	0.014314458
225	0xbcf7c6c4	-0.030246146
226	0xbbff790b	-0.007796412
227	0xbd5c2e77	-0.05375525
228	0xbddb2cbf	-0.10701894
229	0xbe4c8c63	-0.19975428
230	0xbe3b44d3	-0.18287973
231	0xbe4cd840	-0.20004368
232	0xbe443dc0	-0.19164181
233	0xbddc9d04	-0.10772136
234	0xbd4dc734	-0.050238803
235	0xbcefc9f4	-0.029271103
236	0xbc8105a0	-0.015749753
237	0xbdb2b37e	-0.08725642
238	0x3bc782f9	0.006088611
239	0x3e6e01d2	0.23242882
240	0x3ec5f74f	0.38665244
241	0x3ea8bdf0	0.3295741
242	0x3e3eeab8	0.18644226
243	0x3d2212e7	0.039568808
244	0x3ca36454	0.019945301
245	0xbd44788a	-0.047966518
246	0x3a8196f1	0.0009886903
247	0xbd91b390	-0.07114327
248	0xbead0d7f	-0.3379936
249	0xbe577d8e	-0.21043989
250	0xbd8a6ee5	-0.06759433
251	0xbbecb968	-0.0072242506
252	0xbcaec4e2	-0.021334115
253	0x3cc9c084	0.024627931
254	0xbd22506b	-0.039627474
255	0xbd88beee	-0.06677042

linear.bias f4 [10]
0	0xbfc34750	-1.5256138
1	0xbe43e8cb	-0.19131772
2	0xbfadb812	-1.3571799
3	0xbfebc84d	-1.8420502
4	0xbebad673	-0.36491737
5	0x3f82ceb4	1.0219331
6	0xbf84f219	-1.0386382
7	0x3cdb782c	0.0267907
8	0xc0a056db	-5.0106025
9	0xbff3e167	-1.9053162
