model.pth (torch, 32423 bytes, 2 tensors)

linear.weight f4 [10, 784]
0	0x3be28110	0.006912358
1	0x3cefe616	0.029284518
2	0xbc80fafe	-0.015744682
3	0x3cad9f52	0.021194134
4	0xbc0b22d8	-0.008492194
5	0xbc8112a5	-0.01575596
6	0x3cd5f76e	0.02611896
7	0xbc8b4b50	-0.017003685
8	0xbc8ed940	-0.017437577
9	0x3c96d460	0.018411815
10	0xbccbfc4c	-0.024900578
11	0xbc9b0dfe	-0.01892757
12	0x3d119f20	0.035552144
13	0xbd00f8a5	-0.031487126
14	0xbb922aff	-0.004460692
15	0xbc7c69d3	-0.01540609
16	0xbc7cbed4	-0.015426356
17	0x3c43edc8	0.011958547
18	0x3cb8a6e2	0.022540513
19	0x3be2a490	0.00691659
20	0x3ca5ea22	0.020253245
21	0x3ce26c4e	0.027639534
22	0x3bc1aa40	0.005910188
23	0x3cc10eb0	0.023566574
24	0x37a4c800	1.9643456e-05
25	0xbce0eb3e	-0.027455922
26	0x3c3166f4	0.010827769
27	0x3b5e4310	0.0033914484
28	0x3d0207a3	0.031745564
29	0xbc3c2632	-0.011483716
30	0xbd0a677a	-0.03379009
31	0xbc0e463c	-0.008683737
32	0x3cb1bdb5	0.021696905
33	0x3c9360bc	0.017990462
34	0xbc254e03	-0.0100894
35	0xbcc08579	-0.023501145
36	0xbd121c68	-0.03567162
37	0xbc1ccae7	-0.00956986
38	0xbdae0a80	-0.084980965
39	0x3b2f4208	0.0026742239
40	0x3d7e929a	0.06215153
41	0x3d287c40	0.04113412
42	0xbdb35521	-0.087564714
43	0xbdcd87b1	-0.10035647
44	0xbe302b86	-0.17204103
45	0xbd2d3abd	-0.042292345
46	0xbd1bd2a7	-0.03804269
47	0xbb761964	-0.0037551755
48	0xbcb25c1b	-0.021772435
49	0xbba01d35	-0.0048862942
50	0xbd12d8eb	-0.0358514
51	0x3c372f75	0.011180748
52	0x3cba9ed6	0.022780817
53	0x3cc77eea	0.02435251
54	0x3b13f910	0.0022578873
55	0xbc2c386a	-0.010511497
56	0x3cea723a	0.02861892
57	0xbc99bde5	-0.018767307
58	0x3cdd8ad9	0.027043747
59	0xbbb74246	-0.005592617
60	0xbcb77ba0	-0.022397816
61	0x3c176111	0.009239451
62	0xbe4acf21	-0.19805576
63	0xbe760329	-0.24024643
64	0xbe799dce	-0.24376604
65	0xbf28a9e4	-0.6588423
66	0xbf2fc56d	-0.6866062
67	0xbf32ca7f	-0.69840235
68	0xbf9320c3	-1.1494373
69	0xbf9c5b0e	-1.2215288
70	0xbf9bd783	-1.2175144
71	0xbfcbd7e4	-1.592526
72	0xbfaba703	-1.3410343
73	0xbf9c7431	-1.2222959
74	0xbf8dca89	-1.1077434
75	0xbf7ca15c	-0.98683715
76	0xbf53ec69	-0.8278261
77	0xbea1c55e	-0.31595892
78	0xbd74472c	-0.059638187
79	0xbd501123	-0.050797593
80	0x3c0b8d2c	0.008517545
81	0xbcffc08f	-0.031219749
82	0xbc7f0d38	-0.015567116
83	0xbc3e8c86	-0.011630183
84	0x3ca63742	0.02029002
85	0x3d05fc37	0.032711234
86	0xbc4c9fd8	-0.012489282
87	0xbb93fe43	-0.0045163943
88	0xbd91e983	-0.07124617
89	0xbd7a4b8f	-0.061107215
90	0xbe87daec	-0.26534212
91	0xbe9f47ec	-0.3110956
92	0x3d9760c4	0.073915035
93	0xbfa4199f	-1.2820319
94	0xbff5e40b	-1.9210218
95	0xbf9ac3f3	-1.2091049
96	0xbf1ba149	-0.60792977
97	0xbd6e14c4	-0.058125272
98	0xbf4ab988	-0.7918935
99	0xc01c8906	-2.4458632
100	0xbec16507	-0.3777239
101	0x3e71686c	0.2357499
102	0xbfef9788	-1.8718119
103	0xbf9cf76e	-1.226301
104	0xc0182e7b	-2.377837
105	0xbffbb701	-1.9665223
106	0xbfa0a758	-1.2551069
107	0xbf25c3eb	-0.6475207
108	0xbe3c760f	-0.18404411
109	0xbd9c8696	-0.07642858
110	0xba1404f8	-0.00056464924
111	0x3c9c96c6	0.019114863
112	0xb9dbff80	-0.00041961297
113	0x3c7d55f0	0.015462384
114	0x3c9a0098	0.018799111
115	0xbc5dd35d	-0.013539162
116	0xbdf57481	-0.11985112
117	0xbebb2be5	-0.36556926
118	0xbf1861bc	-0.5952413
119	0xbf86b17e	-1.0522916
120	0xbdfa02d8	-0.12207574
121	0xbf07b3b9	-0.5300861
122	0xbf82be08	-1.0214243
123	0xbfb60738	-1.4220953
124	0xbeec3c7b	-0.46139893
125	0x3d8090c7	0.06277614
126	0x3e074c66	0.13212737
127	0x3c1d4081	0.009597898
128	0xbf640331	-0.8906737
129	0xbd25d40f	-0.040485438
130	0xbf1ea7a1	-0.6197453
131	0xbe8b4be0	-0.27206326
132	0x3d721995	0.05910643
133	0xbf82590b	-1.0183424
134	0xbf03ce3c	-0.51486564
135	0xbed248a8	-0.41071057
136	0xbf73212f	-0.9497251
137	0xbefa2695	-0.4885756
138	0xbe2ca117	-0.16858326
139	0x3ca6cdd8	0.020361826
140	0xbcfd77d8	-0.030940935
141	0x373ad000	1.1134893e-05
142	0xbcb216fe	-0.02173948
143	0xbcdf06bc	-0.02722489
144	0xbe83b833	-0.2572647
145	0xbf4c3b59	-0.7977806
146	0xbf4f1bdb	-0.8090188
147	0xbf0ec4b8	-0.5576892
148	0x3e8d484d	0.27594224
149	0xbe3902ef	-0.18067525
150	0x3e30c455	0.17262395
151	0x3f828d3f	1.0199355
152	0xbc788ba2	-0.01517001
153	0x3a6eeddc	0.00091144233
154	0x3f7b987c	0.9827955
155	0x3e850602	0.25981146
156	0x3def248c	0.11676893
157	0xbc6b60a4	-0.014366303
158	0x3f947df3	1.1600937
159	0xbe899600	-0.26872253
160	0xbea14c3b	-0.31503472
161	0xbe89c156	-0.26905316
162	0xbddba835	-0.10725442
163	0xbf1e559f	-0.618494
164	0xbfff4183	-1.9941868
165	0xbf83e54c	-1.0304351
166	0xbe4527a9	-0.1925341
167	0x3cfa367a	0.030543555
168	0xbcc1603a	-0.023605455
169	0x3ca4d5b8	0.02012144
170	0xbcf3d9a5	-0.029766867
171	0x3c708324	0.014679704
172	0xbef04bb4	-0.46932757
173	0xbd696fd4	-0.056991413
174	0xbe24741a	-0.16059914
175	0xbf0e24e0	-0.55525017
176	0xbe97e697	-0.29668114
177	0xbff34478	-1.900527
178	0xbf2015ca	-0.6253325
179	0xbe387bd8	-0.18015993
180	0xbfb5541e	-1.4166296
181	0x3f4d4402	0.80181897
182	0x3e2a7301	0.16645433
183	0x3c730d91	0.014834777
184	0x3ea648d9	0.32477453
185	0x3f0d7d01	0.55268866
186	0x3d5d2a1a	0.05399523
187	0xbe33dd9a	-0.17565003
188	0xbed6be8d	-0.41942254
189	0x3f92928e	1.1450975
190	0x3f5ba6a5	0.85801154
191	0xbf86c863	-1.0529903
192	0xc01a081d	-2.4067452
193	0xbfbe4776	-1.4865558
194	0xbf056f5b	-0.5212304
195	0xbcdab39a	-0.026696969
196	0x3d00c329	0.03143612
197	0xbc8ad9f3	-0.01694963
198	0x3c310f61	0.010806889
199	0xbc69a98a	-0.014261613
200	0xbee9ac1a	-0.45639116
201	0x3ef3ad20	0.4759302
202	0xbe90fdfa	-0.2831877
203	0xbe6dee61	-0.23235466
204	0xbf24cc13	-0.6437389
205	0xbe555caa	-0.2083613
206	0x3f0bf785	0.5467456
207	0x3da8ee83	0.082486175
208	0xbea3b30a	-0.31972533
209	0x3fd21ef1	1.6415693
210	0x3ed15c60	0.4089079
211	0xbd13dab2	-0.036097236
212	0xbf44105f	-0.7658748
213	0x3fdf1986	1.7429664
214	0x3fcaa2ae	1.5830896
215	0x3f96bc90	1.1776295
216	0x3dc7b984	0.09752181
217	0x3f145ba6	0.57952344
218	0xbf5daa73	-0.8658821
219	0xbf131930	-0.5746031
220	0xc0379d30	-2.868969
221	0xbfdc3f85	-1.7206885
222	0xbf329315	-0.6975568
223	0xbdbdcc8a	-0.09267528
224	0x3e8adbf3	0.27120933
225	0x3c6bdf7a	0.014396543
226	0x3c0ea84a	0.008707115
227	0xbce350b6	-0.027748447
228	0xbf5524b1	-0.8325911
229	0xbeb7494a	-0.35798103
230	0xbf074f54	-0.5285542
231	0xbeab94d7	-0.33511993
232	0x3f27a04e	0.6547898
233	0xbe3b1bdb	-0.18272345
234	0x3f647e7a	0.8925549
235	0xbef7802b	-0.48339972
236	0x3f723463	0.94611186
237	0xbfc0e4c5	-1.5069815
238	0x3ef8ed28	0.48618436
239	0x3f483f08	0.7822118
240	0x3fab1570	1.3365917
241	0x3e383d89	0.17992224
242	0x3ecfa759	0.40557364
243	0x3d8bfae5	0.06834964
244	0x3f11f0df	0.57008165
245	0x3eb2aef2	0.34899098
246	0xbea33b91	-0.31881383
247	0x3f7a3e90	0.9775171
248	0xc039b370	-2.901577
249	0xc00ce0a6	-2.2012115
250	0xbf371f2d	-0.71531945
251	0xbdc64ce3	-0.09682634
252	0x3ae13453	0.0017181732
253	0x3b023cb7	0.0019872615
254	0xbb6215c4	-0.0034497837
255	0xbda7052d	-0.08155284

linear.bias f4 [10]
0	0xc0fc3b7f	-7.8822627
1	0xc00c7eef	-2.1952474
2	0xc064b622	-3.5736165
3	0xc11d5695	-9.833638
4	0xbfef2b08	-1.8685007
5	0x405bc737	3.434034
6	0xc0ea669f	-7.325027
7	0x3fd7842f	1.6837214
8	0xc1bd4423	-23.65827
9	0xc12be5ec	-10.743633
